…
f.keras.layers.Conv2D(64, (3,3), activation='relu'),\r\ntf.keras.layers.MaxPooling2D(2,2),\r\ntf.keras.layers.Dropout(dropout),\r\ntf.keras.layers.Flatten(),\r\ntf.keras.layers.Dense(512, activation='relu'),\r\ntf.keras.layers.Dropout(dropout),\r\ntf.keras.layers.Dense(3, activation='softmax')])\r\n\r\nmodel.summary()",
            "stdout": "Model: \"sequential_1\"\n_________________________________________________________________\nLayer (type)                 Output Shape              Param #   \n=================================================================\nconv2d_5 (Conv2D)            (None, 222, 222, 16)      448       \n_________________________________________________________________\nmax_pooling2d_5 (MaxPooling2 (None, 111, 111, 16)      0         \n_________________________________________________________________\ndropout_6 (Dropout)          (None, 111, 111, 16)      0         \n_________________________________________________________________\nconv2d_6 (Conv2D)            (None, 109, 109, 32)      4640      \n_________________________________________________________________\nmax_pooling2d_6 (MaxPooling2 (None, 54, 54, 32)        0         \n_________________________________________________________________\ndropout_7 (Dropout)          (None, 54, 54, 32)        0         \n_________________________________________________________________\nconv2d_7 (Conv2D)            (None, 52, 52, 64)        18496     \n_________________________________________________________________\nmax_pooling2d_7 (MaxPooling2 (None, 26, 26, 64)        0         \n_________________________________________________________________\ndropout_8 (Dropout)          (None, 26, 26, 64)        0         \n_________________________________________________________________\nconv2d_8 (Conv2D)            (None, 24, 24, 64)        36928     \n_________________________________________________________________\nmax_pooling2d_8 (MaxPooling2 (None, 12, 12, 64)        0         \n_________________________________________________________________\ndropout_9 (Dropout)          (None, 12, 12, 64)        0         \n_________________________________________________________________\nconv2d_9 (Conv2D)            (None, 10, 10, 64)        36928     \n_________________________________________________________________\nmax_pooling2d_9 (MaxPooling2 (None, 5, 5, 64)          0         \n_________________________________________________________________\ndropout_10 (Dropout)         (None, 5, 5, 64)          0         \n_________________________________________________________________\nflatten_1 (Flatten)          (None, 1600)              0         \n_________________________________________________________________\ndense_2 (Dense)              (None, 512)               819712    \n_________________________________________________________________\ndropout_11 (Dropout)         (None, 512)               0         \n_________________________________________________________________\ndense_3 (Dense)              (None, 3)                 1539      \n=================================================================\nTotal params: 918,691\nTrainable params: 918,691\nNon-trainable params: 0\n_________________________________________________________________\n"
        },
        {
            "id": 1819097383992,
            "title": "Code",
            "block_type": "CodeBlock",
            "splitter_pos": [
                288,
                386
…
